choquet.pt (torch, 4722 bytes, 7 tensors)

criteria_layer.weight f4 [1, 5]
0	0x3f48a82b	0.78381604
1	0x3f7a2316	0.97709787
2	0x3f5f1743	0.8714487
3	0x3f2b6cf7	0.6696314
4	0x3f047e4c	0.51755214

interaction_layer.weight f4 [1, 10]
0	0xbe184233	-0.14869003
1	0xbde8d2f1	-0.11368359
2	0xbe747af4	-0.23875028
3	0xbe8adb1f	-0.271203
4	0xbd89357d	-0.06699655
5	0xbe7dfdca	-0.24803844
6	0x3db9fd02	0.090814605
7	0xbed9f84d	-0.4257225
8	0xbee3fbd7	-0.44528076
9	0xbeaf57fc	-0.34246814

interaction_layer.criterion_layer.weight f4 [1, 5]
0	0x3f48a82b	0.78381604
1	0x3f7a2316	0.97709787
2	0x3f5f1743	0.8714487
3	0x3f2b6cf7	0.6696314
4	0x3f047e4c	0.51755214

exp_avg f4 [1, 5]
0	0xbcc7083b	-0.024295917
1	0xbc7382bc	-0.0148627125
2	0x3d1e784c	0.038688943
3	0x3cebe82b	0.02879723
4	0xbd2995b2	-0.041402526

exp_avg_sq f4 [1, 5]
0	0x3a5085f9	0.0007954534
1	0x3847c597	4.7629317e-05
2	0x39bbb379	0.00035801137
3	0x391f4812	0.0001519027
4	0x39cda98d	0.00039226972

exp_avg f4 [1, 10]
0	0xbcc76757	-0.024341268
1	0xbca65b27	-0.020307137
2	0xbc914c22	-0.017736498
3	0xbcc7398a	-0.024319429
4	0x3c2abeb5	0.010421445
5	0x3c836273	0.016038155
6	0xbc89703a	-0.016777147
7	0x3d104c4c	0.035229012
8	0x3c0b3655	0.0084968405
9	0x3c7a1ac9	0.015265175

exp_avg_sq f4 [1, 10]
0	0x3a51d477	0.0008004377
1	0x3a55686e	0.00081408664
2	0x3a597c69	0.00082964316
3	0x3a51dc19	0.00080055144
4	0x38a32d60	7.7808974e-05
5	0x391c9e87	0.00014936375
6	0x387ddea4	6.052725e-05
7	0x3980c16b	0.0002455817
8	0x37b2e9fb	2.132821e-05
9	0x38a8c528	8.0475875e-05
