choquet.pt (torch, 4722 bytes, 7 tensors)

criteria_layer.weight f4 [1, 5]
0	0x3e2fee11	0.17180659
1	0x3f1b1159	0.60573345
2	0x3e453fc0	0.192626
3	0x3f2d1eeb	0.676253
4	0x3edce285	0.4314157

interaction_layer.weight f4 [1, 10]
0	0xbd4a095e	-0.04932534
1	0xba743b10	-0.00093166623
2	0xbdd07684	-0.10178855
3	0x3df87072	0.12130822
4	0x3e6d3079	0.23163022
5	0xbe37db0f	-0.17954658
6	0xbd0e11f7	-0.0346851
7	0xbd9f6798	-0.07783431
8	0x3e128dfe	0.14311978
9	0xbdc42ba1	-0.09578634

interaction_layer.criterion_layer.weight f4 [1, 5]
0	0x3e2fee11	0.17180659
1	0x3f1b1159	0.60573345
2	0x3e453fc0	0.192626
3	0x3f2d1eeb	0.676253
4	0x3edce285	0.4314157

exp_avg f4 [1, 5]
0	0xbb3ed97b	-0.0029121328
1	0xba72214d	-0.00092365296
2	0x3b16bc9b	0.0023000601
3	0x3b0425a2	0.0020164032
4	0xbab65723	-0.0013911467

exp_avg_sq f4 [1, 5]
0	0x380e478b	3.3922068e-05
1	0x366502f9	3.412539e-06
2	0x37b18322	2.1161108e-05
3	0x37886da8	1.6263526e-05
4	0x3701e003	7.741156e-06

exp_avg f4 [1, 10]
0	0xbb3f1036	-0.002915395
1	0xbb340d2b	-0.002747367
2	0xbb2ae853	-0.0026078417
3	0xbb3e9951	-0.0029083083
4	0xb81e2333	-3.7702917e-05
5	0x39ed69f3	0.000452831
6	0xba866c33	-0.0010255635
7	0x3ad4e4dd	0.0016242523
8	0x39e7a3b3	0.0004418172
9	0x3a865280	0.0010247976

exp_avg_sq f4 [1, 10]
0	0x380e9931	3.399811e-05
1	0x37fd450b	3.01921e-05
2	0x37e432c0	2.720335e-05
3	0x380de7f0	3.383303e-05
4	0x31c35ef0	5.68604e-09
5	0x355c2d58	8.202237e-07
6	0x368d2ae7	4.207122e-06
7	0x37310bda	1.05527815e-05
8	0x355198d5	7.8080967e-07
9	0x368cf4f1	4.20084e-06
