choquet.pt (torch, 4722 bytes, 7 tensors)

criteria_layer.weight f4 [1, 5]
0	0x3f67d6d3	0.9056217
1	0x3ecdf4bf	0.4022579
2	0x3e1ef1f4	0.15521985
3	0x3f162c93	0.58661765
4	0x3f7cc9a6	0.9874519

interaction_layer.weight f4 [1, 10]
0	0xbbde7c66	-0.006789732
1	0x3c9dcfed	0.019264186
2	0xbd7915d8	-0.060811847
3	0xbd053dd0	-0.032529652
4	0xbcb840d1	-0.022491844
5	0xba0cda61	-0.0005373117
6	0x3d4e541e	0.05037319
7	0x3bd5ae2d	0.0065210075
8	0xbcd2d0fd	-0.025734419
9	0x3dbf079d	0.09327624

interaction_layer.criterion_layer.weight f4 [1, 5]
0	0x3f67d6d3	0.9056217
1	0x3ecdf4bf	0.4022579
2	0x3e1ef1f4	0.15521985
3	0x3f162c93	0.58661765
4	0x3f7cc9a6	0.9874519

exp_avg f4 [1, 5]
0	0xba9ab9a4	-0.0011804593
1	0xb935a840	-0.00017324183
2	0x3adcd2a2	0.0016847441
3	0x3af5106b	0.001869691
4	0xb9da5e3a	-0.00041650404

exp_avg_sq f4 [1, 5]
0	0x36bb07bf	5.573936e-06
1	0x3400e759	1.2005093e-07
2	0x373e7ab3	1.1353451e-05
3	0x376a986e	1.3982977e-05
4	0x353a449c	6.939024e-07

exp_avg f4 [1, 10]
0	0xba9b026b	-0.0011826282
1	0xba8d300a	-0.0010771763
2	0xba7d0225	-0.00096515036
3	0xba9a192f	-0.0011756773
4	0x39d3e2ba	0.0004041398
5	0x3a6eca4d	0.00091091247
6	0xb91f0180	-0.0001516398
7	0x3acf1f43	0.0015802163
8	0x3a4562e3	0.0007529689
9	0x3ab3a150	0.0013704691

exp_avg_sq f4 [1, 10]
0	0x36bbb7d9	5.594437e-06
1	0x369bbbe7	4.6412347e-06
2	0x367a0d3c	3.7260606e-06
3	0x36b9849c	5.5288674e-06
4	0x352f5f87	6.533159e-07
5	0x365ebcc6	3.3190458e-06
6	0x33c585b9	9.1978514e-08
7	0x37279392	9.988335e-06
8	0x36183158	2.2678487e-06
9	0x36fc15f7	7.5127423e-06
