choquet.pt (torch, 4722 bytes, 7 tensors)

criteria_layer.weight f4 [1, 5]
00000000: 0551 693f 9805 6d3f cf29 783e 8387 b33e
00000010: 223e a33e
0.9113925 0.9258666 0.24234699 0.35064325 0.3188334

interaction_layer.weight f4 [1, 10]
00000000: c5a3 fd3d ef07 043e 11d5 f83d ccba 1d3e
00000010: a14b 6b3c c957 9a3d 8240 38bd d4aa f5bd
00000020: c9e6 a4bd ecf4 acba
0.12384752 0.12893651 0.12150014 0.15403289 0.014361293 0.07536275 -0.044983394 -0.119954735
-0.08051831 -0.0013195551

interaction_layer.criterion_layer.weight f4 [1, 5]
00000000: 0551 693f 9805 6d3f cf29 783e 8387 b33e
00000010: 223e a33e
0.9113925 0.9258666 0.24234699 0.35064325 0.3188334

exp_avg f4 [1, 5]
00000000: f56f efba 58ae ae3a 6bfd 103b 4841 a73a
00000010: c4d9 033b
-0.0018267619 0.0013327105 0.0022123705 0.0012760544 0.0020118812

exp_avg_sq f4 [1, 5]
00000000: 3cf2 5f37 ed62 ee36 253c a437 798c da36
00000010: 2fd1 8737
1.3348235e-05 7.104469e-06 1.957833e-05 6.5132595e-06 1.6190663e-05

exp_avg f4 [1, 10]
00000000: 38b7 efba 1252 faba 9f01 01bb f39a f0ba
00000010: edb1 fc39 cdef 2a39 d884 913a c311 643a
00000020: 0350 693a 00ff 153a
-0.0018288856 -0.0019097945 -0.0019684804 -0.0018356725 0.0004819775 0.00016301796 0.0011102213 0.00087001565
0.00089001673 0.0005721897

exp_avg_sq f4 [1, 10]
00000000: 9d77 6037 64c4 7437 4405 8237 e522 6237
00000010: c56e 7935 b946 e433 836f a536 a52f 4b36
00000020: bfa2 5436 a8c5 af35
1.337929e-05 1.4589259e-05 1.549966e-05 1.3478774e-05 9.292092e-07 1.0629942e-07 4.930365e-06 3.027709e-06
3.1685192e-06 1.3096042e-06
