choquet.pt (torch, 4722 bytes, 7 tensors)

criteria_layer.weight f4 [1, 5]
000000 a1 65 68 3f 9c 6e 50 3f 58 23 c8 3d 30 47 39 3f
       0.90780073 0.81418777 0.09772366 0.7237425
000010 c5 4d 81 3f
       1.0101858

interaction_layer.weight f4 [1, 10]
000000 85 ec 48 bd 24 32 a0 3b e6 cb a6 bc 0a 41 30 bc
       -0.049053688 0.0048887897 -0.020360898 -0.010757694
000010 c2 84 4d bd ca 04 aa be cd 63 b0 3d 58 23 c8 bd
       -0.050175436 -0.3320678 0.086127855 -0.09772366
000020 58 23 c8 bd 2e 4e d8 bd
       -0.09772366 -0.105617866

interaction_layer.criterion_layer.weight f4 [1, 5]
000000 a1 65 68 3f 9c 6e 50 3f 58 23 c8 3d 30 47 39 3f
       0.90780073 0.81418777 0.09772366 0.7237425
000010 c5 4d 81 3f
       1.0101858

exp_avg f4 [1, 5]
000000 60 9c 14 bc 4f 14 8e 3a 52 ec ba 3c 23 aa 06 3d
       -0.009070486 0.0010839793 0.022817764 0.0328771
000010 e1 f0 34 bc
       -0.011043758

exp_avg_sq f4 [1, 5]
000000 c0 82 ba 38 08 ac b8 36 8d 87 c5 38 90 52 2a 39
       8.893525e-05 5.5036544e-06 9.41894e-05 0.0001624322
000010 be 15 c1 38
       9.207007e-05

exp_avg f4 [1, 10]
000000 cc 4b 15 bc 50 eb e8 bb dc 7d a4 bb 99 19 13 bc
       -0.00911231 -0.0071081296 -0.0050198864 -0.008978271
000010 b7 77 41 3c 5a b4 ad 3c 1c 7e c3 3a 0e d6 ed 3c
       0.011808327 0.021204162 0.0014914903 0.029032733
000020 d6 ed 43 3c 5c f4 ca 3c
       0.01195856 0.024774723

exp_avg_sq f4 [1, 10]
000000 0e 59 ba 38 5b b6 c9 38 e0 ef d2 38 19 e0 ba 38
       8.885759e-05 9.618393e-05 0.000100582605 8.9109126e-05
000010 4c 0a d9 37 58 56 b6 38 fe c6 4d 36 6a b0 0e 39
       2.587321e-05 8.694519e-05 3.066321e-06 0.00013607895
000020 53 68 ab 37 9a 3c c8 38
       2.0433368e-05 9.548031e-05
